Model: "ASL"
_________________________________________________________________
 Layer (type)                Output Shape              Param #   
=================================================================
 cos_sim2d (CosSim2D)        (None, 60, 60, 16)        1217      
                                                                 
 max_abs_pool2d (MaxAbsPool2  (None, 30, 30, 16)       0         
 D)                                                              
                                                                 
 cos_sim2d_1 (CosSim2D)      (None, 28, 28, 16)        2321      
                                                                 
 max_abs_pool2d_1 (MaxAbsPoo  (None, 14, 14, 16)       0         
 l2D)                                                            
                                                                 
 cos_sim2d_2 (CosSim2D)      (None, 12, 12, 16)        2321      
                                                                 
 max_abs_pool2d_2 (MaxAbsPoo  (None, 6, 6, 16)         0         
 l2D)                                                            
                                                                 
 cos_sim2d_3 (CosSim2D)      (None, 4, 4, 16)          2321      
                                                                 
 max_abs_pool2d_3 (MaxAbsPoo  (None, 1, 1, 16)         0         
 l2D)                                                            
                                                                 
 flatten (Flatten)           (None, 16)                0         
                                                                 
 dense (Dense)               (None, 29)                493       
                                                                 
=================================================================
Total params: 8,673
Trainable params: 8,673
Non-trainable params: 0
_________________________________________________________________
Epoch 1/40
490/490 [==============================] - 586s 1s/step - loss: 2.5610 - accuracy: 0.2918 - val_loss: 1.7965 - val_accuracy: 0.5234
…
